TASK4/results/best/model_augmented.pth (torch, 71413 bytes, 13 tensors)

layers.0.weight f4 [32, 3, 3, 3]
0.066615425 -0.033138603 0.037383053 -0.14696757 -0.17567794 -0.05488637 0.17054495 0.072752215
0.09624172 -0.014716054 -0.182685 -0.20883374 -0.030632216 -0.119459696 0.028410608 0.079389356
0.21003756 0.07976882 -0.15795672 0.079799674 -0.20728622 0.15268429 0.074018404 0.075272955
0.061501764 -0.10818906 0.06858707 0.075573646 -0.182217 0.0045070536 0.14910416 -0.0052572186
0.08291366 0.30449134 0.18255517 0.21173047 -0.26354253 0.04363616 -0.12291923 -0.19976681
0.058515534 -0.15470457 0.20765027 0.14963993 0.18900478 0.084002554 -0.06287397 -0.012399454
0.12633993 -0.10854093 -0.14923367 -0.15529977 -0.092669666 -0.011529528 0.17740154 0.15707901
-0.016435772 0.11592503 -0.116787806 -0.02530794 -0.025734052 -0.048436485 -0.07779513 -0.16795544
0.12645337 -0.11091491 -0.11952449 -0.0004688788 -0.09079992 0.012465289 0.16270442 0.094053544
-0.14192726 -0.024097476 -0.19309516 -0.048355196 0.17025481 0.0132411765 0.15015624 -0.06956565
0.18630914 -0.09704397 -0.14322603 -0.060592078 -0.0037865161 -0.04246163 0.016117232 -0.15158285
0.14949808 -0.1633517 -0.13107237 -0.2236661 -0.15330958 0.034505803 0.020410543 -0.05447076
0.08869955 -0.15382577 0.20942633 -0.10098907 0.11061589 0.13324541 0.06579436 -0.049899604
-0.1672322 -0.08359762 0.17968063 -0.08273004 0.20508802 -0.012024936 -0.08843581 0.21828759
-0.07413104 0.08201773 0.08680884 0.1576082 -0.07698856 -0.21004604 -0.09687311 0.065756746
0.14247733 -0.16517283 -0.16462123 -0.16706595 -0.16046023 0.036686014 -0.19449627 0.067261375
0.18174617 -0.1272095 -0.0023978704 -0.1625592 0.21032596 0.20779282 0.09238153 0.12911431
0.20473927 0.07826172 -0.19634356 -0.045247935 0.18686491 -0.14084435 -0.013999309 -0.14048831
0.17058788 0.061282665 0.100749135 0.0060235886 -0.14013352 0.16466427 -0.06919275 -0.08192349
-0.16670376 -0.13369344 0.073319115 0.05742893 0.08760227 -0.05235517 -0.00027667615 -0.027384201
-0.23209126 0.059827883 -0.10046513 -0.11927411 0.1503574 0.043146197 -0.17222698 -0.20529234
0.07496565 0.08527607 -0.21287559 0.21967854 -0.09915279 -0.11140448 -0.12758599 -0.19102715
0.015613404 0.06585866 0.07151915 0.059097532 0.19905259 0.14410661 0.13019063 0.11297931
-0.21880281 0.14928903 0.10295238 -0.03937188 0.06600967 -0.17866074 0.09165645 -0.14247265
-0.12286352 -0.009382506 0.04320901 0.019883893 0.19263215 0.1312216 -0.14870554 0.07645936
-0.106995285 0.10144212 -0.1883476 -0.059431285 0.12701793 0.12262977 0.04085546 -0.23225361
-0.025737407 0.04045028 0.08333908 0.16103865 -0.014931446 0.05239221 0.026264321 -0.102098174
-0.15795654 -0.03959457 -0.10285931 -0.107685685 0.043208774 0.08352529 0.23011321 -0.09698956
0.19556484 0.015361976 -0.16337846 -0.056296356 0.0039003084 -0.09461538 -0.19577165 0.23491737
0.2160227 0.20587839 0.13212092 0.049438056 -0.06723845 -0.084214255 0.03827655 -0.091988064
-0.07018236 0.13064319 -0.16423929 0.22739063 0.078592524 -0.15118913 0.17593935 0.19263768
-0.06541631 0.16496271 -0.031668212 0.1015481 0.051474627 0.14497575 -0.12590289 0.09827259
00000000: ab6d 883d 58bc 07bd f91e 193d ab7e 16be
00000010: ebe4 33be 88d0 60bd 56a3 2e3e 1dff 943d
00000020: 611a c53d 9b1b 71bc c711 3bbe 83d8 55be
00000030: 6af0 fabc 49a7 f4bd 5dbd e83c e396 a23d
00000040: 1614 573e d65d a33d 68bf 21be 036e a33d
00000050: d742 54be 4559 1c3e f696 973d b528 9a3d
00000060: 46e9 7b3d 3a92 ddbd 6177 8c3d 5bc6 9a3d
00000070: 1897 3abe e8af 933b c3ae 183e bf44 acbb
00000080: a3ce a93d 4ae6 9b3e beef 3a3e dfcf 583e
00000090: 0cef 86be d5bb 323d 14bd fbbd ac8f 4cbe
000000a0: fcad 6f3d e06a 1ebe 46a2 543e 363b 193e
000000b0: 788a 413e 8809 ac3d 11c4 80bd 1427 4bbc
000000c0: 415f 013e b54a debd b6d0 18be e706 1fbe
000000d0: 98c9 bdbd 58e6 3cbc c0a8 353e 52d9 203e
000000e0: 50a4 86bc 1a6a ed3d 722e efbd 9952 cfbc
000000f0: 38d0 d2bc 5665 46bd 0e53 9fbd 83fc 2bbe
00000100: fe7c 013e 5b27 e3bd 41c9 f4bd d9d3 f5b9
00000110: 4ff5 b9bd 363b 4c3c fd9b 263e 259f c03d
00000120: 6155 11be 1268 c5bc bdba 45be 1910 46bd
00000130: 4757 2e3e 85f1 583c 8fc2 193e 6f78 8ebd
00000140: d3c7 3e3e fdbe c6bd d8a9 12be 662f 78bd
00000150: 3327 78bb 3fec 2dbd 4908 843c 8938 1bbe
00000160: 0616 193e ab45 27be d637 06be ba08 65be
00000170: 30fd 1cbe f555 0d3d 0334 a73c bb1c 5fbd
00000180: 1ca8 b53d 8184 1dbe db73 563e 5cd3 cebd
00000190: 958a e23d 7c71 083e 32bf 863d 8763 4cbd
000001a0: eb3e 2bbe 3b35 abbd 33fe 373e 5e6e a9bd
000001b0: 9802 523e 3d04 45bc d51d b5bd c886 5f3e
000001c0: 04d2 97bd e9f8 a73d d5c8 b13d 0b64 213e
000001d0: 2eac 9dbd 4f16 57be 6965 c6bd 79ab 863d
000001e0: 94e5 113e 1123 29be 7892 28be 5613 2bbe
000001f0: b04f 24be 1344 163d 082a 47be 55c0 893d
00000200: ab1b 3a3e 3543 02be 9725 1dbb eb75 26be
00000210: b05f 573e a4c7 543e 8732 bd3d 8b36 043e
00000220: 2ca7 513e ae47 a03d 490e 49be e655 39bd
00000230: 8459 3f3e 8039 10be 5c5d 65bc 2bdc 0fbe
00000240: 97ae 2e3e 8803 7b3d 9055 ce3d 8661 c53b
00000250: 297f 0fbe c09d 283e eeb4 8dbd 81c7 a7bd
00000260: 64b4 2abe efe6 08be 5528 963d 993a 6b3d
00000270: d268 b33d 6072 56bd d80e 91b9 d554 e0bc
00000280: 55a9 6dbe 150e 753d a9c0 cdbd fc45 f4bd
00000290: 4af7 193e 11ba 303d 455c 30be 2838 52be
000002a0: 9787 993d 38a5 ae3d 0ffc 59be 69f3 603e
000002b0: 9e10 cbbd 0828 e4bd e7a5 02be 9f9c 43be
000002c0: 5dcf 7f3c e8e0 863d a278 923d 4110 723d
000002d0: 71d4 4b3e af90 133e b150 053e b261 e73d
000002e0: d80d 60be 39df 183e b3d8 d23d 6944 21bd
000002f0: 1430 873d d7f2 36be 60b6 bb3d 5ae4 11be
00000300: df9f fbbd 15b9 19bc eefb 303d 8ce3 a23c
00000310: 5d41 453e f55e 063e 4446 18be ba96 9c3d
00000320: 5820 dbbd e3c0 cf3d 31de 40be 386e 73bd
00000330: fd10 023e 5125 fb3d 0e58 273d e4d3 6dbe
00000340: 41d7 d2bc 31af 253d aead aa3d 51e7 243e
00000350: 06a3 74bc 3799 563d 4628 d73c d918 d1bd
00000360: 5cbf 21be ea2d 22bd e7a7 d2bd 508a dcbd
00000370: affb 303d 4f0f ab3d cca2 6b3e 76a2 c6bd
00000380: 2642 483e ccb0 7b3c af4c 27be 0297 66bd
00000390: 519c 7f3b b5c5 c1bd 5d78 48be 2e8e 703e
000003a0: 0e35 5d3e c9d1 523e b54a 073e 8f7f 4a3d
000003b0: 50b4 89bd 8678 acbd dfc7 1c3d 3d64 bcbd
000003c0: c5bb 8fbd 54c7 053e 582e 28be 17d9 683e
000003d0: 1ef5 a03d 53d1 1abe 7229 343e d042 453e
000003e0: fdf8 85bd fceb 283e 87b6 01bd 73f8 cf3d
000003f0: 0fd7 523d 8674 143e b0ec 00be 2443 c93d

layers.0.bias f4 [32]
0.009992075 -0.047698237 -0.090100534 0.09226885 0.02650386 -0.07810244 0.124236956 0.037651025
0.12703787 -0.020870928 -0.108429104 0.06874619 0.014262973 -0.07456722 -0.050842725 -0.1972281
-0.14877725 -0.017007753 0.18903148 0.22342218 0.010495082 -0.019967217 0.23605435 0.088317044
-0.07390219 0.016485976 0.037730575 0.02503891 0.116461694 -0.05406696 0.01552134 0.16822551
00000000: cdb5 233c 3a5f 43bd a186 b8bd 73f7 bc3d
00000010: 9f1e d93c 2cf4 9fbd f26f fe3d f637 1a3d
00000020: 3716 023e 82f9 aabc 1410 debd cdca 8c3d
00000030: 3faf 693c b3b6 98bd 7640 50bd 2af6 49be
00000040: 1059 18be d853 8bbc 7891 413e c9c8 643e
00000050: 90f3 2b3c 4a92 a3bc 3bb8 713e 91df b43d
00000060: 085a 97bd 990d 873c 608b 1a3d 661e cd3c
00000070: 7883 ee3d 5175 5dbd 384d 7e3c 4f43 2c3e

layers.2.weight f4 [32]
1.0343293 0.95944357 1.0554136 1.0199375 1.0461621 1.0076358 0.94113684 1.0394701
0.98119676 0.9571564 0.7610726 1.0067245 0.95769775 1.0368282 0.9955334 0.9797358
1.0 1.0234405 0.85607076 0.9831771 1.0465273 0.8923894 0.8748162 1.0217052
0.9677746 1.1553533 1.1259584 1.0236653 0.9628284 0.939405 1.0229079 0.7603376
00000000: e764 843f 189e 753f cb17 873f 508d 823f
00000010: a4e8 853f 36fa 803f 58ee 703f 5b0d 853f
00000020: b62f 7b3f 3408 753f a7d5 423f 59dc 803f
00000030: ae2b 753f c9b6 843f 47db 7e3f f7cf 7a3f
00000040: 0000 803f 1900 833f 7427 5b3f 7fb1 7b3f
00000050: 9bf4 853f a273 643f f4f3 5f3f 3cc7 823f
00000060: 14c0 773f 9ee2 933f 681f 903f 7707 833f
00000070: ec7b 763f d97c 703f a5ee 823f 7ca5 423f

layers.2.bias f4 [32]
0.0017030525 0.05683633 -0.09453807 0.19903943 -0.018571122 -0.012959578 -0.0123896245 -0.040217336
-0.066191904 -0.028919194 -0.075943165 -0.072119646 0.09477209 0.0322246 -0.0049061826 0.26355922
0.25408077 -0.13228106 -0.039479017 -0.105006516 -0.23034482 0.17338715 0.05809753 0.12374277
0.0067472644 -0.05879783 0.07779173 0.059775166 0.08853869 0.09046202 0.09976566 0.00072983245
00000000: f638 df3a 36cd 683d 2d9d c1bd fed0 4b3e
00000010: 7722 98bc 6954 54bc dafd 4abc efba 24bd
00000020: 9f8f 87bd f2e7 ecbc 1788 9bbd 77b3 93bd
00000030: df17 c23d f1fd 033d 0bc4 a0bb 3cf1 863e
00000040: e016 823e b074 07be c0b4 21bd a80d d7bd
00000050: 83df 6bbe 678c 313e adf7 6d3d d96c fd3d
00000060: 2818 dd3b fed5 70bd 4551 9f3d ced6 743d
00000070: c653 b53d 2744 b93d f051 cc3d 3a52 3f3a

layers.2.running_mean f4 [32]
0.019874323 0.17736745 0.0033347395 0.0027268059 0.07959273 0.0112702865 0.11387496 0.033767063
0.16556576 0.07252348 0.17355083 0.061142508 0.021429569 0.0025759195 0.001568223 1.6632626e-08
0.0 0.044026043 0.30629495 0.1652327 0.022554986 0.089452736 0.71474195 0.005838158
0.00011814963 0.021605944 0.00068831624 0.018647498 0.08085624 0.1974981 0.0009122602 0.9105059
00000000: 7acf a23c d09f 353e a58b 5a3b 36b4 323b
00000010: 8301 a33d 02a7 383c 4637 e93d 554f 0a3d
00000020: 128a 293e 3187 943d 4fb7 313e 9170 7a3d
00000030: 108d af3c c2d0 283b d58c cd3a 88df 8e32
00000040: 0000 0000 a754 343d b1d2 9c3e c332 293e
00000050: 3cc5 b83c ff32 b73d 54f9 363f 054e bf3b
00000060: 1ac7 f738 f3fe b03c 1f70 343a a3c2 983c
00000070: f597 a53d f13c 4a3e bf24 6f3a ea16 693f

layers.2.running_var f4 [32]
0.0019351065 0.017895885 0.00020171172 0.00014997351 0.002649115 0.0019552382 0.00672304 0.0023601353
0.0051406515 0.0068534557 0.01941462 0.002240015 0.0019116832 0.00025679605 0.000189146 4.670752e-10
6e-45 0.0013366634 0.009268579 0.0017648544 0.0008787572 0.009199753 0.0619733 0.000428778
1.4315681e-05 0.0036478825 4.0635357e-05 0.0015585527 0.0052156085 0.021062633 4.9136914e-05 0.14686763
00000000: 66a3 fd3a 649a 923c 9482 5339 3542 1d39
00000010: c69c 2d3b 7423 003b f24c dc3b 80ac 1a3b
00000020: e972 a83b f492 e03b 690b 9f3c 37cd 123b
00000030: 7291 fa3a 95a2 8639 7e55 4639 7f63 0030
00000040: 0400 0000 fb32 af3a 3ddb 173c b052 e73a
00000050: 665c 663a 90ba 163c b7d7 7d3d 9ccd e039
00000060: 622d 7037 5011 6f3b e26f 2a38 5a48 cc3a
00000070: b2e7 aa3b 8b8b ac3c 5c18 4e38 7864 163e

layers.5.weight f4 [32, 32, 3, 3]
-0.005399535 -0.02281794 -0.029188765 0.08647713 -0.06481836 -0.03850569 0.025559135 0.09118043
-0.005326659 -0.011003045 -0.0124795055 -0.06113929 0.006834743 0.029390084 0.0009079342 0.07406683
0.0937891 0.022536471 0.0018214396 0.005553445 -0.08228531 0.0009113727 -0.051297013 -0.08458154
-0.039595664 -0.08017666 -0.02164412 0.055623304 0.051302828 0.063276015 0.020300906 0.03271932
0.041284103 -0.04018879 0.032996126 0.007389451 -0.043119427 0.064483516 2.957449e-05 -0.027329942
0.0662046 0.0029161861 -0.0920946 0.060689855 -0.03453557 0.024273233 -0.04185172 -0.0918275
-0.063784584 -0.05818615 -0.09235778 0.020785945 -0.035232607 -0.09764185 0.033298 0.041435044
0.042963237 0.023779038 0.07369555 0.005385671 -0.027167575 0.10794851 -0.011390169 0.06296951
-0.01846219 -0.007009271 0.050662275 0.044679277 0.028085822 0.109291054 0.079544984 0.017311445
0.05767562 -0.0037298866 -0.054211535 0.04426376 0.03416942 -0.037664972 0.098726384 0.049494047
0.037475348 -0.07089006 0.03205121 -0.008360215 -0.007582763 0.00287702 0.002716166 0.002561509
0.023745982 0.030727595 -0.0038345503 0.015979014 -0.0322588 0.023117727 -0.024387095 -0.0529167
0.008414392 0.05242251 -0.028495444 -0.022804623 0.11353412 0.091626786 0.13581426 0.043372862
-0.051214505 0.09011708 0.0051003327 -0.007015277 -0.02590103 -0.05082561 -0.11582841 0.10370562
-0.018945651 -0.09576228 0.04845586 -0.0008541361 0.0002599777 0.0038790335 0.12934305 -0.010880983
0.04082919 0.05867464 0.07522953 0.046925288 0.18680795 0.08597747 -0.006529417 0.09327142
0.051134076 -0.022928638 0.063866414 0.009810307 -0.0102055445 -0.009655984 -0.076007955 -0.1014675
-0.1313795 -0.049496222 -0.085491106 -0.10637891 -0.016335342 -0.14576627 -0.03631544 -0.050911568
-0.038071554 -0.12895812 -0.11512318 0.004448238 -0.011445114 -0.053740725 -0.13519178 -0.08697293
-0.16203569 0.011015517 0.08115999 -0.024688348 -0.005063442 -0.00814306 -0.091188334 0.08697571
-0.03140205 -0.06975564 -0.030090222 -0.008739756 0.044027288 0.022276243 -0.008690574 -0.052255284
0.038487382 0.09766306 -0.02793543 0.092854634 0.015132742 -0.056349806 0.051647987 0.06087439
-0.043417823 0.094818205 0.09872996 -0.1562476 -0.029335022 -0.018222261 0.0117689185 0.008028943
-0.0073496546 0.008693801 -0.01098882 -0.032253448 -0.065485775 -0.080182076 -0.010199308 -0.04549063
0.030296914 -0.04205161 -0.10964308 -0.004958641 0.01755027 0.04741342 0.015972624 -0.008607068
-0.039553527 0.008568804 0.020269888 -0.03883222 -0.0049143117 -0.025127882 0.058107395 0.009435572
0.041461267 0.014082626 0.004550199 -0.023096742 -0.003996113 0.03347613 0.0030589607 -0.015452495
-0.06346485 0.031277183 0.12176647 0.11929775 0.016364416 0.0122267585 0.042375933 0.07610072
0.07387731 -0.034943108 0.008321795 -0.10900492 -0.07375805 -0.08149 -0.06364106 -0.041242983
-0.066555746 -0.112754844 0.035131782 0.05555981 0.08343389 0.015862612 0.018567977 0.04947604
0.019267209 0.030649573 -0.07540439 -0.06773866 0.0077956356 -0.06467485 -0.1102193 0.00067111745
-0.022303168 -0.076216884 -0.0015021225 0.01933835 -0.029238647 0.0041218637 -0.034357205 0.10169286
00000000: 95ee b0bb b0ec babc 471d efbc ec1a b13d
00000010: 7dbf 84bd 24b8 1dbd 6461 d13c cebc ba3d
00000020: 418b aebb 1e46 34bc d776 4cbc 316d 7abd
00000030: fbf5 df3b 79c3 f03c 6f02 6e3a 5ab0 973d
00000040: 8014 c03d 689e b83c 5fbd ee3a acf9 b53b
00000050: 3385 a8bd 30e9 6e3a d11c 52bd 1639 adbd
00000060: 102f 22bd a933 a4bd 024f b1bc 43d5 633d
00000070: ea22 523d db96 813d 164e a63c b204 063d
00000080: 8519 293d 009d 24bd f226 073d 3523 f23b
00000090: ff9d 30bd ef0f 843d bc16 f837 0be3 dfbc
000000a0: 4796 873d 7c1d 3f3b 189c bcbd ed95 783d
000000b0: 2b75 0dbd a9d8 c63c b66c 2bbd 0e10 bcbd
000000c0: 7ea1 82bd 9a54 6ebd 1326 bdbd 4947 aa3c
000000d0: 1150 10bd 73f8 c7bd 7c63 083d cbb7 293d
000000e0: 38fa 2f3d 42cc c23c b1ed 963d 487a b03b
000000f0: 898e debc 1c14 dd3d d59d 3abc 29f6 803d
00000100: 053e 97bc 07ae e5bb 3f83 4f3d 9e01 373d
00000110: 3d14 e63c fdd3 df3d 7be8 a23d bbd0 8d3c
00000120: 453d 6c3d 1d71 74bb ea0c 5ebd eb4d 353d
00000130: 3cf5 0b3d 9646 1abd 0f31 ca3d 45ba 4a3d
00000140: c07f 193d cf2e 91bd 2148 033d 49f9 08bc
00000150: d478 f8bb 638c 3c3b b401 323b fdde 273b
00000160: ef86 c23c 70b8 fb3c 144d 7bbb 6ce6 823c
00000170: ce21 04bd 6361 bd3c 72c7 c7bc 2ebf 58bd
00000180: 85dc 093c fcb8 563d 476f e9bc c3d0 babc
00000190: 9484 e83d d3a6 bb3d e512 0b3e bea7 313d
000001a0: 4dc6 51bd 4e8f b83d b120 a73b 69e0 e5bb
000001b0: 662e d4bc 842e 50bd 7237 edbd 9d63 d43d
000001c0: e933 9bbc 041f c4bd a779 463d 1ae8 5fba
000001d0: 9e4d 8839 6237 7e3b 8172 043e 2746 32bc
000001e0: 823c 273d d254 703d f111 9a3d bb34 403d
000001f0: 954a 3f3e f514 b03d b8f4 d5bb 1605 bf3d
00000200: f771 513d d7d4 bbbc 65cc 823d 69bb 203c
00000210: 2835 27bc 2234 1ebc 0faa 9bbd 31ce cfbd
00000220: 5988 06be 8dbc 4abd f615 afbd 30dd d9bd
00000230: b2d1 85bc c143 15be 80bf 14bd a688 50bd
00000240: ebf0 1bbd 990d 04be b4c5 ebbd 86c2 913b
00000250: 4a84 3bbc 3c1f 5cbd b76f 0abe dd1e b2bd
00000260: afec 25be 6d7a 343c 3537 a63d 383f cabc
00000270: 3beb a5bb 786a 05bc f3c0 babd 5220 b23d
00000280: 709f 00bd 0cdc 8ebd c57f f6bc 3231 0fbc
00000290: f555 343d ab7c b63c e962 0ebc a309 56bd
000002a0: f2a4 1d3d 9203 c83d d8d8 e4bc 922a be3d
000002b0: 52ef 773c 0ecf 66bd d78c 533d 6d57 793d
000002c0: e3d6 31bd 0c30 c23d ef32 ca3d 5fff 1fbe
000002d0: 0050 f0bc da46 95bc 6cd2 403c d48b 033c
000002e0: 5fd5 f0bb 7270 0e3c 740a 34bc 311c 04bd
000002f0: 681d 86bd 8036 a4bd 001b 27bc 6254 3abd
00000300: 3c31 f83c 4f3e 2cbd 8d8c e0bd 187c a2bb
00000310: 95c5 8f3c 9334 423d 05d9 823c a904 0dbc
00000320: e102 22bd 2b64 0c3c 090d a63c 890e 1fbd
00000330: 3c08 a1bb fdd8 cdbc 0502 6e3d a897 1a3c
00000340: 4ad3 293d d1ba 663c d619 953b 6135 bdbc
00000350: d3f1 82bb 441e 093d d878 483b 762c 7dbc
00000360: dcf9 81bd 811c 003d b360 f93d 6152 f43d
00000370: ab0e 863c be52 483c 6392 2d3d b2da 9b3d
00000380: fd4c 973d 8120 0fbd 2358 083c f93d dfbd
00000390: 760e 97bd 3be4 a6bd 3e56 82bd 67ee 28bd
000003a0: 614e 88bd 03ec e6bd 58e6 0f3d af92 633d
000003b0: 63df aa3d 4ff2 813c df1b 983c 63a7 4a3d
000003c0: 44d6 9d3c d014 fb3c 9e6d 9abd 91ba 8abd
000003d0: 8872 ff3b 3f74 84bd a8ba e1bd eeed 2f3a
000003e0: 22b5 b6bc 9917 9cbd dee2 c4ba 766b 9e3c
000003f0: e385 efbc b310 873b 24ba 0cbd 5944 d03d

layers.5.bias f4 [32]
-0.122794345 -0.14224061 -0.14566137 -0.13174368 0.045381397 -0.049031578 0.118375994 -0.16109237
-0.22420217 -0.0071948683 0.09193692 -0.18522407 -0.14543504 -0.04716981 0.11011965 0.022304017
-0.22349419 -0.013303099 -0.110620275 -0.28242904 -0.06712231 -0.04452476 0.07459809 0.04443138
-0.08055831 0.022190854 -0.069899954 -0.1223306 -0.031208532 0.08037583 -0.12576067 -0.15114702
00000000: 9a7b fbbd 86a7 11be 4128 15be d1e7 06be
00000010: d8e1 393d 56d5 48bd 1d6f f23d 66f5 24be
00000020: 4195 65be eec2 ebbb 6d49 bc3d 61ab 3dbe
00000030: ecec 14be 2135 41bd 6986 e13d eab6 b63c
00000040: a9db 64be 3ef5 59bc e28c e2bd 8a9a 90be
00000050: 6c77 89bd 985f 36bd e2c6 983d aefd 353d
00000060: c1fb a4bd 98c9 b53c b527 8fbd 7788 fabd
00000070: 09a9 ffbc 159c a43d 68c7 00be 49c6 1abe

layers.7.weight f4 [32]
0.8277757 0.80989385 0.9437908 0.7836754 0.7857903 0.9002186 0.82333004 0.766985
0.8418518 0.871105 0.8820173 0.8147013 0.9092794 0.87960905 0.78184354 0.79622024
0.8340128 0.8564154 0.89870936 0.9249106 0.8738872 0.83581513 0.90373194 0.8539782
0.8693725 0.99477535 0.91400373 0.8684294 0.81101793 0.89169365 0.810235 0.8685145
00000000: 1ce9 533f 3455 4f3f 469c 713f f39e 483f
00000010: 8e29 493f ba74 663f c2c5 523f 2159 443f
00000020: 9983 573f bd00 5f3f e3cb 613f 4490 503f
00000030: 89c6 683f 0f2e 613f e626 483f 17d5 4b3f
00000040: dd81 553f 0a3e 5b3f d111 663f f1c6 6c3f
00000050: 12b7 5f3f fbf7 553f fa5a 673f 519e 5a3f
00000060: 328f 5e3f 99a9 7e3f 26fc 693f 6451 5e3f
00000070: df9e 4f3f 0946 643f 906b 4f3f f756 5e3f

layers.7.bias f4 [32]
-0.22635752 -0.19409151 -0.062536925 -0.14135636 -0.07671995 -0.23952848 -0.29210475 -0.1802455
-0.09156651 -0.09507957 -0.1339571 -0.20931603 -0.19626044 -0.23143075 -0.24836797 -0.2149386
-0.16603924 -0.19467522 -0.20445614 -0.024960095 -0.08543321 -0.19339426 -0.13973686 -0.28265637
-0.093736105 -0.09317764 -0.19201575 -0.21139951 -0.21566187 -0.09530942 -0.11177908 -0.26268804
00000000: 44ca 67be edbf 46be 5c13 80bd b9bf 10be
00000010: 591f 9dbd f446 75be c18e 95be 4792 38be
00000020: 3987 bbbd 14b9 c2bd 0d2c 09be f156 56be
00000030: 7ff8 48be 2ffc 6cbe 2c54 7ebe dd18 5cbe
00000040: 3106 2abe f158 47be f35c 51be 1d79 ccbc
00000050: 9bf7 aebd 2509 46be 2e17 0fbe 56b8 90be
00000060: b7f8 bfbd ebd3 bebd c79f 44be 1d79 58be
00000070: 77d6 5cbe 9631 c3bd 6eec e4bd 0c7f 86be

layers.7.running_mean f4 [32]
0.62513 0.97772986 0.41380414 0.5416004 1.0274286 0.8267369 0.84916687 0.2454834
0.41626826 1.1019764 1.0729896 0.48779222 0.48368514 0.5547327 1.1776037 0.67684597
0.5859443 0.90113634 0.43546104 0.18768506 0.50405324 1.0468333 0.72995675 0.98560303
1.1397593 0.8793936 0.7671615 0.60779953 0.9376221 0.8840871 0.52871954 0.4772871
00000000: 8508 203f 814c 7a3f 23de d33e 53a6 0a3f
00000010: c882 833f 08a5 533f 0063 593f 0060 7b3e
00000020: 1d21 d53e 900d 8d3f b957 893f e7bf f93e
00000030: 94a5 f73e f602 0e3f b8bb 963f c745 2d3f
00000040: 7200 163f dfb0 663f c0f4 de3e 8330 403e
00000050: a209 013f a2fe 853f 72de 3a3f 7b50 7c3f
00000060: a2e3 913f f01f 613f b264 443f c098 1b3f
00000070: 0008 703f 8853 623f 2a5a 073f fa5e f43e

layers.7.running_var f4 [32]
1.9181285 3.017832 0.7377154 1.5508657 2.2006752 2.605521 1.3009031 0.5856501
1.1226764 2.62028 2.2170029 1.4548972 1.3585411 0.9204677 2.941257 1.3935905
1.4609025 2.4130223 0.89983237 0.4339399 1.2086954 3.3567126 1.0371166 2.2224314
2.9348855 2.1224952 1.8971847 2.4422646 2.5004773 1.9930942 2.1394095 1.0444498
00000000: 3c85 f53f 2924 4140 ebda 3c3f c482 c63f
00000010: ddd7 0c40 dbc0 2640 fe83 a63f 2aed 153f
00000020: dcb3 8f3f abb2 2740 60e3 0d40 123a ba3f
00000030: ade4 ad3f c5a3 6b3f 8e3d 3c40 2c61 b23f
00000040: dafe ba3f f56e 1a40 6a5b 663f 5f2d de3e
00000050: 88b6 9a3f 61d4 5640 3dc0 843f 513c 0e40
00000060: 2ad5 3b40 f6d6 0740 f3d6 f23f 104e 1c40
00000070: d207 2040 b61d ff3f 16ec 0840 88b0 853f

linear_layers.0.weight f4 [1, 6272]
-0.04791338 -0.022325464 0.002868787 -0.036882117 -0.018810583 -0.027352735 -0.073733486 -0.022708746
-0.018163644 -0.006683383 -0.020910352 -0.03136347 0.0075420607 -0.013154996 -0.069937706 -0.010428092
-0.0068511893 0.0014984328 -0.040456213 0.006548922 -0.031501625 -0.0473455 0.016391512 0.027119821
0.012532512 -0.013772094 0.0022422639 -0.006711967 0.015378319 0.025474148 -0.02986957 -0.040953733
-0.006532542 -0.020949503 -0.032321263 -0.03808391 -0.033087987 0.037070397 -0.016050946 -0.008762195
-0.03663133 -0.0025217729 0.0019381158 -0.020425493 -0.011268429 -0.003819199 0.00017975367 0.07197868
0.05882532 -0.0055892845 -0.026328385 0.006458518 0.004102535 0.03765639 -0.0046116733 -0.016866058
-0.025859367 0.034587193 0.03601131 0.008636117 0.065610416 0.053955555 -0.025608635 -0.0074064718
-0.011611905 -0.01599993 0.021339335 -0.037106574 0.012141969 0.008913601 -0.006284329 -0.0037221045
-0.020051865 -0.021517653 -0.019066615 -0.004753355 -0.005458673 -0.039999608 -0.048172936 -0.02901433
0.027666973 -0.0031889165 0.0028077513 -0.01590948 0.026984535 -0.031973787 -0.0021816387 -0.024477169
-0.020820381 0.043797053 0.004222789 -0.03327444 -0.038084675 -0.035327185 0.02996567 -0.033129692
0.019080104 -0.019761106 -0.018245896 -0.013902927 0.019419381 -0.042453144 -0.00631365 0.06711582
0.030638304 0.01732371 -0.015889257 0.0021656149 -0.016106537 0.0015626708 0.031692993 -0.00042797712
-0.034698922 -0.0063009984 0.00564952 -0.008342923 0.033086702 0.021681402 0.0023960893 0.006088897
0.026900494 -0.022556463 0.022102023 0.025153708 -0.012771036 -0.07606587 0.008952574 0.0047857133
-0.000483782 -0.0050317678 -0.033929333 0.065078706 0.029487932 0.017931998 -0.00036002483 0.042611763
0.048980944 -0.030398635 0.00036388644 -0.04210653 -0.026033547 -0.0031941864 -0.04167385 -0.009349904
0.02712074 0.07774972 0.14465792 0.08608789 0.01306867 -0.018353024 -0.032093227 0.0047001243
0.0136504555 0.021008778 -0.020077968 0.05058415 -0.02716278 0.01847067 -0.003211035 0.06947085
0.06883565 0.072204694 0.017731845 0.00822817 -0.010113054 -0.03596874 -0.026498042 -0.029557014
0.027570566 0.022181695 0.0070188106 0.005457727 8.6530694e-05 0.02288039 -0.00545157 -0.011817007
-0.043112144 0.051861588 0.003274128 0.0032731725 0.004891722 0.019503754 0.02263849 -0.013609031
-0.03319265 0.010827965 0.01062269 0.0007480285 -0.018530471 0.010106362 -0.017452052 -0.0057985405
0.017129572 -0.028123373 0.001265193 0.03674714 -0.051132217 -0.010033705 0.01603608 -0.0014687906
-0.023582567 0.008076376 -0.02099621 -0.0026525194 -0.0032410522 -0.0071528684 -0.011996455 -0.023379656
-0.043606576 0.005334448 0.014726866 0.029974695 0.015463506 -0.01406508 -0.015479269 -0.0026567841
-0.018454287 -0.024854714 0.010173143 0.023432683 0.0025439535 0.00831253 -0.026220653 -0.011051104
0.014636865 0.02740871 -0.007962882 -0.026101423 -0.01428644 -0.033993796 0.03875096 0.026642494
0.008472492 0.018660082 0.048273575 0.017643904 -0.00761031 0.04107405 0.008806826 -0.009600319
-0.014894486 0.015741022 -0.02574429 -0.035757888 0.039226305 0.019430835 0.0056791985 -0.0035431131
0.008051137 0.01979886 -0.039021693 0.015355447 -0.027050361 0.004359839 0.008715319 0.016519073
00000000: d240 44bd e4e3 b6bc 4202 3c3b b411 17bd
00000010: a718 9abc d812 e0bc 9501 97bd b107 babc
00000020: eccb 94bc 4800 dbbb 304c abbc fb76 00bd
00000030: 6423 f73b 0d88 57bc 803b 8fbd 97da 2abc
00000040: f17f e0bb 1067 c43a 6ab5 25bd 5798 d63b
00000050: d907 01bd 5bed 41bd 7e47 863c 632a de3c
00000060: 2a55 4d3c 59a4 61bc f2f2 123b 0ff0 dbbb
00000070: 58f5 7b3c 29af d03c 07b1 f4bc 1abf 27bd
00000080: ef0e d6bb 4b9e abbc 4d63 04bd e0fd 1bbd
00000090: 4587 07bd 21d7 173d 467d 83bc 4f8f 0fbc
000000a0: bc0a 16bd 5444 25bb 6008 fe3a 5d53 a7bc
000000b0: 389f 38bc 874b 7abb 427c 3c39 8f69 933d
000000c0: d2f2 703d 5126 b7bb a0ae d7bc faa1 d33b
000000d0: 8f6e 863b 963d 1a3d 851d 97bb b02a 8abc
000000e0: 06d7 d3bc 4dab 0d3d 9880 133d 807e 0d3c
000000f0: c15e 863d 8000 5d3d 33c9 d1bc fdb1 f2bb
00000100: dc3f 3ebc 4912 83bc d4cf ae3c 10fd 17bd
00000110: 1cef 463c 5a0a 123c c6ec cdbb 8dee 73bb
00000120: cf43 a4bc ca45 b0bc 9731 9cbc 08c2 9bbb
00000130: abde b2bb a1d6 23bd fc50 45bd 76af edbc
00000140: d9a5 e23c 24fd 50bb 4002 383b 9954 82bc
00000150: ac0e dd3c f2f6 02bd d3f9 0ebb 5884 c8bc
00000160: 818f aabc 8a64 333d 525f 8a3b c74a 08bd
00000170: adfe 1bbd 3db3 10bd 917a f53c 00b3 07bd
00000180: e14d 9c3c 0be2 a1bc 6b78 95bc 1ac9 63bc
00000190: 6515 9f3c 59e3 2dbd bce2 cebb 0574 893d
000001a0: 2efd fa3c 74ea 8d3c 302a 82bc fdec 0d3b
000001b0: dbf1 83bc 88d2 cc3a 83d0 013d 1e62 e0b9
000001c0: 7520 0ebd 9b78 cebb 9c1f b93b c1b0 08bc
000001d0: ec85 073d 329d b13c b507 1d3b 5f85 c73b
000001e0: 6d5e dc3c 55c8 b8bc 4d0f b53c 260f ce3c
000001f0: 9b3d 51bc 6cc8 9bbd d1ad 123c 79d1 9c3b
00000200: 1fa4 fdb9 87e1 a4bb 7cf9 0abd fc47 853d
00000210: ad90 f13c 20e6 923c b7c1 bcb9 ac89 2e3d
00000220: 3ea0 483d 8f06 f9bc 03c8 be39 e677 2cbd
00000230: 4e44 d5bc 8e55 51bb 33b2 2abd 5730 19bc
00000240: 502c de3c 3f3b 9f3d 3521 143e d94e b03d
00000250: fa1d 563c 1559 96bc 3074 03bd 8003 9a3b
00000260: 29a6 5f3c 9a1a ac3c 8d7a a4bc 5331 4f3d
00000270: 7a84 debc cd4f 973c 3a70 52bb bc46 8e3d
00000280: b5f9 8c3d 0ee0 933d 6042 913c 72cf 063c
00000290: 39b1 25bc f553 13bd 6c12 d9bc 8d21 f2bc
000002a0: abdb e13c 63b6 b53c 0dfe e53b bbd6 b23b
000002b0: d077 b538 a86f bb3c 15a3 b2bb 1f9c 41bc
000002c0: 5c96 30bd d16c 543d c192 563b b982 563b
000002d0: bd4a a03b 56c6 9f3c 5b74 b93c 6af8 5ebc
000002e0: 04f5 07bd c767 313c cb0a 2e3c 5817 443a
000002f0: 37cd 97bc 2895 253c 9bf7 8ebc af01 bebb
00000300: 5153 8c3c fd62 e6bc d5d4 a53a 2b84 163d
00000310: 0470 51bd 6964 24bc 195e 833c 6f84 c0ba
00000320: 3a30 c1bc c752 043c 3e00 acbc e4d5 2dbb
00000330: d567 54bb 9c62 eabb c78c 44bc b186 bfbc
00000340: cf9c 32bd 98cc ae3b f448 713c 7e8d f53c
00000350: a55a 7d3c 3971 66bc c39c 7dbc 711d 2ebb
00000360: 722d 97bc 1d9c cbbc 41ad 263c e6f5 bf3c
00000370: 75b8 263b 4731 083c b2cc d6bc b10f 35bc
00000380: 76cf 6f3c 3b88 e03c bf76 02bc a7d2 d5bc
00000390: ac11 6abc 143d 0bbd 54b9 1e3d 5c41 da3c
000003a0: 35d0 0a3c 07dd 983c 83ba 453d f389 903c
000003b0: e85f f9bb 433d 283d 814a 103c a84a 1dbc
000003c0: 0108 74bc 51f3 803c b0e5 d2bc dd76 12bd
000003d0: c3ab 203d 6a2d 9f3c 9218 ba3b 9333 68bb
000003e0: ebe8 033c 3831 a23c 36d5 1fbd 6a95 7b3c
000003f0: b898 ddbc fbdc 8e3b b3ca 0e3c 0253 873c
